Hyperparameters used are as follows:

batch size = 256, learning rate = 0.01, momentum = 0.9
validation size = 100,dataset expansion multiplier = 0.1, max images trained = 5000000
loss function = Cross Entropy Loss, optimizer = SGD

Structure of neural network:

 Net(
  (conv1): Conv2d(3, 20, kernel_size=(5, 5), stride=(1, 1))
  (pool): MaxPool2d(kernel_size=2, stride=2, padding=0, dilation=1, ceil_mode=False)
  (conv2): Conv2d(20, 20, kernel_size=(5, 5), stride=(1, 1))
  (fc1): Linear(in_features=500, out_features=100, bias=True)
  (fc2): Linear(in_features=100, out_features=100, bias=True)
  (fc3): Linear(in_features=100, out_features=10, bias=True)
) 

Net(
  (conv1): Conv2d(3, 20, kernel_size=(5, 5), stride=(1, 1))
  (pool): MaxPool2d(kernel_size=2, stride=2, padding=0, dilation=1, ceil_mode=False)
  (conv2): Conv2d(20, 20, kernel_size=(5, 5), stride=(1, 1))
  (fc1): Linear(in_features=500, out_features=100, bias=True)
  (fc2): Linear(in_features=100, out_features=100, bias=True)
  (fc3): Linear(in_features=100, out_features=10, bias=True)
)

~~~~~~~~~~~~~~~~~~~~~~~~~~~~~~~~~~~~~~~~~~~~~~~~~~~~~~~~~~~~~~~~~~~~~~~~~~~~~~~~~~~~~~~~

Epoch 1

 loss: 1.533
Training set accuracy: 45.6 %

Training set confusion matrix:

[[ 6883  2649  1810  3786  1303  9277  4535  3010  6304  5440]
 [ 4799  3597  1420  3792  1788  7996  6275  4040  4212  7353]
 [ 5933  2687  2483  3820  2649  7595  5331  3294  5534  5403]
…
